…
2020-02-15 11:20:45.101752: I tensorflow/core/common_runtime/gpu/gpu_device.cc:1115] 0:   N
2020-02-15 11:20:45.111332: I tensorflow/core/common_runtime/gpu/gpu_device.cc:1241] Created TensorFlow device (/job:localhost/replica:0/task:0/device:GPU:0 with 4702 MB memory) -> physical GPU (device: 0, name: GeForce GTX 1060, pci bus id: 0000:01:00.0, compute capability: 6.1)
Model: "sequential"
_________________________________________________________________
Layer (type)                 Output Shape              Param #
=================================================================
conv2d (Conv2D)              (None, 178, 178, 32)      320
_________________________________________________________________
conv2d_1 (Conv2D)            (None, 176, 176, 32)      9248
_________________________________________________________________
max_pooling2d (MaxPooling2D) (None, 88, 88, 32)        0
_________________________________________________________________
dropout (Dropout)            (None, 88, 88, 32)        0
_________________________________________________________________
conv2d_2 (Conv2D)            (None, 86, 86, 64)        18496
_________________________________________________________________
conv2d_3 (Conv2D)            (None, 84, 84, 64)        36928
_________________________________________________________________
max_pooling2d_1 (MaxPooling2 (None, 42, 42, 64)        0
_________________________________________________________________
dropout_1 (Dropout)          (None, 42, 42, 64)        0
_________________________________________________________________
flatten (Flatten)            (None, 112896)            0
_________________________________________________________________
dense (Dense)                (None, 256)               28901632
_________________________________________________________________
dropout_2 (Dropout)          (None, 256)               0
_________________________________________________________________
dense_1 (Dense)              (None, 10)                2570
=================================================================
Total params: 28,969,194
Trainable params: 28,969,194
Non-trainable params: 0
_________________________________________________________________
Train on 13386 samples
Epoch 1/60
2020-02-15 11:20:46.358642: I tensorflow/stream_executor/platform/default/dso_loader.cc:44] Successfully opened dynamic library cublas64_10.dll
2020-02-15 11:20:47.369109: I tensorflow/stream_executor/platform/default/dso_loader.cc:44] Successfully opened dynamic library cudnn64_7.dll
…
